name: "VGG_ILSVRC_16_layers"
layer {
  name: "input"
  type: "Input"
  top: "data"
  input_param {
    shape {
      dim: 1
      dim: 1
      dim: 224
      dim: 224
    }
  }
}
layer {
  bottom: "data"
  top: "conv1_1"
  name: "conv1_1"
  type: "Convolution"
  param {  
    lr_mult: 1  
    decay_mult: 1  
  }   
  convolution_param {  
    num_output: 64  
    bias_term: false
    pad: 1  
    kernel_size: 3  
    weight_filler {
      type: "xavier"
    } 
  }  
}
layer {
  bottom: "conv1_1"
  top: "conv1_1"
  name: "conv1_1_bn"
  type: "BatchNorm"
  param {
    lr_mult: 0.0
    decay_mult: 0.0
  }
  param {
    lr_mult: 0.0
    decay_mult: 0.0
  }
  param {
    lr_mult: 0.0
    decay_mult: 0.0
  }
  batch_norm_param {
  	use_global_stats: true
  }
}
layer {
  bottom: "conv1_1"
  top: "conv1_1"
  name: "conv1_1_scale"
  type: "Scale"
  param {
    lr_mult: 1.0
    decay_mult: 0.0
  }
  param {
    lr_mult: 1.0
    decay_mult: 0.0
  }
  scale_param {
    filler {
      type: "constant"
      value: 1.0
    }
    bias_term: true
    bias_filler {
      type: "constant"
      value: 0.0
    }
  }
}
layer {
  bottom: "conv1_1"
  top: "conv1_1"
  name: "relu1_1"
  type: "ReLU"
}
layer {
  bottom: "conv1_1"
  top: "conv1_2"
  name: "conv1_2"
  type: "Convolution"
  param {  
    lr_mult: 1  
    decay_mult: 1  
  }  
  convolution_param {  
    num_output: 64 
    bias_term: false
    pad: 1  
    kernel_size: 3  
    weight_filler {
      type: "xavier"
    }
  }
}
layer {
  bottom: "conv1_2"
  top: "conv1_2"
  name: "conv1_2_bn"
  type: "BatchNorm"
  param {
    lr_mult: 0.0
    decay_mult: 0.0
  }
  param {
    lr_mult: 0.0
    decay_mult: 0.0
  }
  param {
    lr_mult: 0.0
    decay_mult: 0.0
  }
  batch_norm_param {
    use_global_stats: true
  }
}
layer {
  bottom: "conv1_2"
  top: "conv1_2"
  name: "conv1_2_scale"
  type: "Scale"
  param {
    lr_mult: 1.0
    decay_mult: 0.0
  }
  param {
    lr_mult: 1.0
    decay_mult: 0.0
  }
  scale_param {
    filler {
      type: "constant"
      value: 1.0
    }
    bias_term: true
    bias_filler {
      type: "constant"
      value: 0.0
    }
  }
}
layer {
  bottom: "conv1_2"
  top: "conv1_2"
  name: "relu1_2"
  type: "ReLU"
}
layer {
  bottom: "conv1_2"
  top: "pool1"
  name: "pool1"
  type: "Pooling"
  pooling_param {
    pool: MAX
    kernel_size: 2
    stride: 2
  }
}
layer {
  bottom: "pool1"
  top: "conv2_1"
  name: "conv2_1"
  type: "Convolution"
  param {  
    lr_mult: 1  
    decay_mult: 1  
  }    
  convolution_param {  
    num_output: 128  
    bias_term: false
    pad: 1  
    kernel_size: 3  
    weight_filler {
      type: "xavier"
    }
  }  
}
layer {
  bottom: "conv2_1"
  top: "conv2_1"
  name: "conv2_1_bn"
  type: "BatchNorm"
  param {
    lr_mult: 0.0
    decay_mult: 0.0
  }
  param {
    lr_mult: 0.0
    decay_mult: 0.0
  }
  param {
    lr_mult: 0.0
    decay_mult: 0.0
  }
  batch_norm_param {
    use_global_stats: true
  }
}
layer {
  bottom: "conv2_1"
  top: "conv2_1"
  name: "conv2_1_scale"
  type: "Scale"
  param {
    lr_mult: 1.0
    decay_mult: 0.0
  }
  param {
    lr_mult: 1.0
    decay_mult: 0.0
  }
  scale_param {
    filler {
      type: "constant"
      value: 1.0
    }
    bias_term: true
    bias_filler {
      type: "constant"
      value: 0.0
    }
  }
}
layer {
  bottom: "conv2_1"
  top: "conv2_1"
  name: "relu2_1"
  type: "ReLU"
}
layer {
  bottom: "conv2_1"
  top: "conv2_2"
  name: "conv2_2"
  type: "Convolution"
  param {  
    lr_mult: 1  
    decay_mult: 1  
  }   
  convolution_param {  
    num_output: 128  
    bias_term: false
    pad: 1  
    kernel_size: 3  
    weight_filler {
      type: "xavier"
    } 
  } 
}
layer {
  bottom: "conv2_2"
  top: "conv2_2"
  name: "conv2_2_bn"
  type: "BatchNorm"
  param {
    lr_mult: 0.0
    decay_mult: 0.0
  }
  param {
    lr_mult: 0.0
    decay_mult: 0.0
  }
  param {
    lr_mult: 0.0
    decay_mult: 0.0
  }
  batch_norm_param {
    use_global_stats: true
  }
}
layer {
  bottom: "conv2_2"
  top: "conv2_2"
  name: "conv2_2_scale"
  type: "Scale"
  param {
    lr_mult: 1.0
    decay_mult: 0.0
  }
  param {
    lr_mult: 1.0
    decay_mult: 0.0
  }
  scale_param {
    filler {
      type: "constant"
      value: 1.0
    }
    bias_term: true
    bias_filler {
      type: "constant"
      value: 0.0
    }
  }
}
layer {
  bottom: "conv2_2"
  top: "conv2_2"
  name: "relu2_2"
  type: "ReLU"
}
layer {
  bottom: "conv2_2"
  top: "pool2"
  name: "pool2"
  type: "Pooling"
  pooling_param {
    pool: MAX
    kernel_size: 2
    stride: 2
  }
}
layer {
  bottom: "pool2"
  top: "conv3_1"
  name: "conv3_1"
  type: "Convolution"
  param {  
    lr_mult: 1  
    decay_mult: 1  
  }  
  convolution_param {  
    num_output: 256  
    bias_term: false
    pad: 1
    stride: 2
    kernel_size: 3  
    weight_filler {
      type: "xavier"
    }
  }
}
layer {
  bottom: "conv3_1"
  top: "conv3_1"
  name: "conv3_1_bn"
  type: "BatchNorm"
  param {
    lr_mult: 0.0
    decay_mult: 0.0
  }
  param {
    lr_mult: 0.0
    decay_mult: 0.0
  }
  param {
    lr_mult: 0.0
    decay_mult: 0.0
  }
  batch_norm_param {
  	use_global_stats: true
  }
}
layer {
  bottom: "conv3_1"
  top: "conv3_1"
  name: "conv3_1_scale"
  type: "Scale"
  param {
    lr_mult: 1.0
    decay_mult: 0.0
  }
  param {
    lr_mult: 1.0
    decay_mult: 0.0
  }
  scale_param {
    filler {
      type: "constant"
      value: 1.0
    }
    bias_term: true
    bias_filler {
      type: "constant"
      value: 0.0
    }
  }
}
layer {
  bottom: "conv3_1"
  top: "conv3_1"
  name: "relu3_1"
  type: "ReLU"
}
layer {
  bottom: "conv3_1"
  top: "conv3_2"
  name: "conv3_2"
  type: "Convolution"
  param {  
    lr_mult: 1  
    decay_mult: 1  
  }    
  convolution_param {  
    num_output: 256 
    bias_term: false 
    pad: 1  
    kernel_size: 3  
    weight_filler {
      type: "xavier"
    }
  }
}
layer {
  bottom: "conv3_2"
  top: "conv3_2"
  name: "conv3_2_bn"
  type: "BatchNorm"
  param {
    lr_mult: 0.0
    decay_mult: 0.0
  }
  param {
    lr_mult: 0.0
    decay_mult: 0.0
  }
  param {
    lr_mult: 0.0
    decay_mult: 0.0
  }
  batch_norm_param {
    use_global_stats: true
  }
}
layer {
  bottom: "conv3_2"
  top: "conv3_2"
  name: "conv3_2_scale"
  type: "Scale"
  param {
    lr_mult: 1.0
    decay_mult: 0.0
  }
  param {
    lr_mult: 1.0
    decay_mult: 0.0
  }
  scale_param {
    filler {
      type: "constant"
      value: 1.0
    }
    bias_term: true
    bias_filler {
      type: "constant"
      value: 0.0
    }
  }
}
layer {
  bottom: "conv3_2"
  top: "conv3_2"
  name: "relu3_2"
  type: "ReLU"
}
layer {
  bottom: "conv3_2"
  top: "conv3_3"
  name: "conv3_3"
  type: "Convolution"
  param {  
    lr_mult: 1  
    decay_mult: 1  
  }  
  convolution_param {  
    num_output: 256  
    bias_term: false
    pad: 1  
    kernel_size: 3  
    weight_filler {
      type: "xavier"
    }
  }
}
layer {
  bottom: "conv3_3"
  top: "conv3_3"
  name: "conv3_3_bn"
  type: "BatchNorm"
  param {
    lr_mult: 0.0
    decay_mult: 0.0
  }
  param {
    lr_mult: 0.0
    decay_mult: 0.0
  }
  param {
    lr_mult: 0.0
    decay_mult: 0.0
  }
  batch_norm_param {
    use_global_stats: true
  }
}
layer {
  bottom: "conv3_3"
  top: "conv3_3"
  name: "conv3_3_scale"
  type: "Scale"
  param {
    lr_mult: 1.0
    decay_mult: 0.0
  }
  param {
    lr_mult: 1.0
    decay_mult: 0.0
  }
  scale_param {
    filler {
      type: "constant"
      value: 1.0
    }
    bias_term: true
    bias_filler {
      type: "constant"
      value: 0.0
    }
  }
}
layer {
  bottom: "conv3_3"
  top: "conv3_3"
  name: "relu3_3"
  type: "ReLU"
}
layer {
  bottom: "conv3_3"
  top: "pool3"
  name: "pool3"
  type: "Pooling"
  pooling_param {
    pool: MAX
    kernel_size: 2
    stride: 2
  }
}
layer {
  bottom: "pool3"
  top: "conv4_1"
  name: "conv4_1"
  type: "Convolution"
  param {  
    lr_mult: 1  
    decay_mult: 1  
  }  
  convolution_param {  
    num_output: 512  
    bias_term: false
    pad: 1 
    stride: 2
    kernel_size: 3  
    weight_filler {
      type: "xavier"
    }
  }
}
layer {
  bottom: "conv4_1"
  top: "conv4_1"
  name: "conv4_1_bn"
  type: "BatchNorm"
  param {
    lr_mult: 0.0
    decay_mult: 0.0
  }
  param {
    lr_mult: 0.0
    decay_mult: 0.0
  }
  param {
    lr_mult: 0.0
    decay_mult: 0.0
  }
  batch_norm_param {
    use_global_stats: true
  }
}
layer {
  bottom: "conv4_1"
  top: "conv4_1"
  name: "conv4_1_scale"
  type: "Scale"
  param {
    lr_mult: 1.0
    decay_mult: 0.0
  }
  param {
    lr_mult: 1.0
    decay_mult: 0.0
  }
  scale_param {
    filler {
      type: "constant"
      value: 1.0
    }
    bias_term: true
    bias_filler {
      type: "constant"
      value: 0.0
    }
  }
}
layer {
  bottom: "conv4_1"
  top: "conv4_1"
  name: "relu4_1"
  type: "ReLU"
}
layer {
  bottom: "conv4_1"
  top: "conv4_2"
  name: "conv4_2"
  type: "Convolution"
  param {  
    lr_mult: 1  
    decay_mult: 1  
  }   
  convolution_param {  
    num_output: 512  
    bias_term: false
    pad: 1  
    kernel_size: 3  
    weight_filler {
      type: "xavier"
    }
  }
}
layer {
  bottom: "conv4_2"
  top: "conv4_2"
  name: "conv4_2_bn"
  type: "BatchNorm"
  param {
    lr_mult: 0.0
    decay_mult: 0.0
  }
  param {
    lr_mult: 0.0
    decay_mult: 0.0
  }
  param {
    lr_mult: 0.0
    decay_mult: 0.0
  }
  batch_norm_param {
    use_global_stats: true
  }
}
layer {
  bottom: "conv4_2"
  top: "conv4_2"
  name: "conv4_2_scale"
  type: "Scale"
  param {
    lr_mult: 1.0
    decay_mult: 0.0
  }
  param {
    lr_mult: 1.0
    decay_mult: 0.0
  }
  scale_param {
    filler {
      type: "constant"
      value: 1.0
    }
    bias_term: true
    bias_filler {
      type: "constant"
      value: 0.0
    }
  }
}
layer {
  bottom: "conv4_2"
  top: "conv4_2"
  name: "relu4_2"
  type: "ReLU"
}
layer {
  bottom: "conv4_2"
  top: "conv4_3"
  name: "conv4_3"
  type: "Convolution"
  param {  
    lr_mult: 1  
    decay_mult: 1  
  }  
  convolution_param {  
    num_output: 512  
    bias_term: false
    pad: 1  
    kernel_size: 3  
    weight_filler {
      type: "xavier"
    }
  }
}
layer {
  bottom: "conv4_3"
  top: "conv4_3"
  name: "conv4_3_bn"
  type: "BatchNorm"
  param {
    lr_mult: 0.0
    decay_mult: 0.0
  }
  param {
    lr_mult: 0.0
    decay_mult: 0.0
  }
  param {
    lr_mult: 0.0
    decay_mult: 0.0
  }
  batch_norm_param {
    use_global_stats: true
  }
}
layer {
  bottom: "conv4_3"
  top: "conv4_3"
  name: "conv4_3_scale"
  type: "Scale"
  param {
    lr_mult: 1.0
    decay_mult: 0.0
  }
  param {
    lr_mult: 1.0
    decay_mult: 0.0
  }
  scale_param {
    filler {
      type: "constant"
      value: 1.0
    }
    bias_term: true
    bias_filler {
      type: "constant"
      value: 0.0
    }
  }
}
layer {
  bottom: "conv4_3"
  top: "conv4_3"
  name: "relu4_3"
  type: "ReLU"
}
layer {
  bottom: "conv4_3"
  top: "pool4"
  name: "pool4"
  type: "Pooling"
  pooling_param {
    pool: MAX
    kernel_size: 2
    stride: 2
  }
}
layer {
  bottom: "pool4"
  top: "conv5_1"
  name: "conv5_1"
  type: "Convolution"
  param {  
    lr_mult: 1  
    decay_mult: 1  
  }  
  convolution_param {  
    num_output: 512
    bias_term: false  
    pad: 1  
    stride: 2
    kernel_size: 3  
    weight_filler {
      type: "xavier"
    }
  } 
}
layer {
  bottom: "conv5_1"
  top: "conv5_1"
  name: "conv5_1_bn"
  type: "BatchNorm"
  param {
    lr_mult: 0.0
    decay_mult: 0.0
  }
  param {
    lr_mult: 0.0
    decay_mult: 0.0
  }
  param {
    lr_mult: 0.0
    decay_mult: 0.0
  }
  batch_norm_param {
    use_global_stats: true
  }
}
layer {
  bottom: "conv5_1"
  top: "conv5_1"
  name: "conv5_1_scale"
  type: "Scale"
  param {
    lr_mult: 1.0
    decay_mult: 0.0
  }
  param {
    lr_mult: 1.0
    decay_mult: 0.0
  }
  scale_param {
    filler {
      type: "constant"
      value: 1.0
    }
    bias_term: true
    bias_filler {
      type: "constant"
      value: 0.0
    }
  }
}
layer {
  bottom: "conv5_1"
  top: "conv5_1"
  name: "relu5_1"
  type: "ReLU"
}
layer {
  bottom: "conv5_1"
  top: "conv5_2"
  name: "conv5_2"
  type: "Convolution"
  param {  
    lr_mult: 1  
    decay_mult: 1  
  }   
  convolution_param {  
    num_output: 512  
    bias_term: false
    pad: 1  
    kernel_size: 3  
    weight_filler {
      type: "xavier"
    }
  }
}
layer {
  bottom: "conv5_2"
  top: "conv5_2"
  name: "conv5_2_bn"
  type: "BatchNorm"
  param {
    lr_mult: 0.0
    decay_mult: 0.0
  }
  param {
    lr_mult: 0.0
    decay_mult: 0.0
  }
  param {
    lr_mult: 0.0
    decay_mult: 0.0
  }
  batch_norm_param {
    use_global_stats: true
  }
}
layer {
  bottom: "conv5_2"
  top: "conv5_2"
  name: "conv5_2_scale"
  type: "Scale"
  param {
    lr_mult: 1.0
    decay_mult: 0.0
  }
  param {
    lr_mult: 1.0
    decay_mult: 0.0
  }
  scale_param {
    filler {
      type: "constant"
      value: 1.0
    }
    bias_term: true
    bias_filler {
      type: "constant"
      value: 0.0
    }
  }
}
layer {
  bottom: "conv5_2"
  top: "conv5_2"
  name: "relu5_2"
  type: "ReLU"
}
layer {
  bottom: "conv5_2"
  top: "conv5_3"
  name: "conv5_3"
  type: "Convolution"
  param {  
    lr_mult: 1  
    decay_mult: 1  
  }  
  convolution_param {  
    num_output: 512  
    bias_term: false
    pad: 1  
    kernel_size: 3  
    weight_filler {
      type: "xavier"
    }
  } 
}
layer {
  bottom: "conv5_3"
  top: "conv5_3"
  name: "conv5_3_bn"
  type: "BatchNorm"
  param {
    lr_mult: 0.0
    decay_mult: 0.0
  }
  param {
    lr_mult: 0.0
    decay_mult: 0.0
  }
  param {
    lr_mult: 0.0
    decay_mult: 0.0
  }
  batch_norm_param {
    use_global_stats: true
  }
}
layer {
  bottom: "conv5_3"
  top: "conv5_3"
  name: "conv5_3_scale"
  type: "Scale"
  param {
    lr_mult: 1.0
    decay_mult: 0.0
  }
  param {
    lr_mult: 1.0
    decay_mult: 0.0
  }
  scale_param {
    filler {
      type: "constant"
      value: 1.0
    }
    bias_term: true
    bias_filler {
      type: "constant"
      value: 0.0
    }
  }
}
layer {
  bottom: "conv5_3"
  top: "conv5_3"
  name: "relu5_3"
  type: "ReLU"
}
layer {
  bottom: "conv5_3"
  top: "gobal_pool"
  name: "gobal_pool"
  type: "Pooling"
  pooling_param {
    pool: AVE
    global_pooling: true
  }
}

layer {  
  bottom: "gobal_pool"  
  top: "fc8"  
  name: "fc8_1"  
  type: "InnerProduct"  
  param {  
    lr_mult: 10  
    decay_mult: 10  
  }  
  param {  
    lr_mult: 20  
    decay_mult: 0  
  }  
  inner_product_param {  
    num_output: 100  
    weight_filler {  
      type: "gaussian"  
      std: 0.005  
    }  
    bias_filler {  
      type: "constant"  
      value: 0.1  
    }  
  }  
} 

layer {
  name: "prob"
  type: "Softmax"
  bottom: "fc8"
  top: "prob"
}
